module {
  func.func @main(%arg0: !torch.vtensor<[1],si64>, %arg1: !torch.vtensor<[1],si64>, %arg2: !torch.vtensor<[128],f32>, %arg3: !torch.vtensor<[128],si32>, %arg4: !torch.vtensor<[1],f32>, %arg5: !torch.vtensor<[128],f32>, %arg6: !torch.vtensor<[128],f32>, %arg7: !torch.vtensor<[1],si64>, %arg8: !torch.vtensor<[1],si64>, %arg9: !torch.vtensor<[1],f32>, %arg10: !torch.vtensor<[1],si32>, %arg11: !torch.vtensor<[1],f32>, %arg12: !torch.vtensor<[],f32>, %arg13: !torch.vtensor<[],f32>, %arg14: !torch.vtensor<[1],si64>, %arg15: !torch.vtensor<[1],si64>, %arg16: !torch.vtensor<[10],f32>, %arg17: !torch.vtensor<[10],si32>, %arg18: !torch.vtensor<[1],f32>, %arg19: !torch.vtensor<[10],f32>, %arg20: !torch.vtensor<[10],f32>, %arg21: !torch.vtensor<[1],si64>, %arg22: !torch.vtensor<[1],si64>, %arg23: !torch.vtensor<[1],f32>, %arg24: !torch.vtensor<[1],si32>, %arg25: !torch.vtensor<[1],f32>, %arg26: !torch.vtensor<[],f32>, %arg27: !torch.vtensor<[],f32>, %arg28: !torch.vtensor<[1],si64>, %arg29: !torch.vtensor<[1],si64>, %arg30: !torch.vtensor<[1],f32>, %arg31: !torch.vtensor<[1],si32>, %arg32: !torch.vtensor<[1],f32>, %arg33: !torch.vtensor<[],f32>, %arg34: !torch.vtensor<[],f32>, %arg35: !torch.vtensor<[1],si64>, %arg36: !torch.vtensor<[1],si64>, %arg37: !torch.vtensor<[1],f32>, %arg38: !torch.vtensor<[1],si32>, %arg39: !torch.vtensor<[1],f32>, %arg40: !torch.vtensor<[],f32>, %arg41: !torch.vtensor<[],f32>, %arg42: !torch.vtensor<[1,784],f32>) -> (!torch.vtensor<[128],f32>, !torch.vtensor<[128],si32>, !torch.vtensor<[128],f32>, !torch.vtensor<[128],f32>, !torch.vtensor<[1],f32>, !torch.vtensor<[1],si32>, !torch.vtensor<[],f32>, !torch.vtensor<[],f32>, !torch.vtensor<[10],f32>, !torch.vtensor<[10],si32>, !torch.vtensor<[10],f32>, !torch.vtensor<[10],f32>, !torch.vtensor<[1],f32>, !torch.vtensor<[1],si32>, !torch.vtensor<[],f32>, !torch.vtensor<[],f32>, !torch.vtensor<[1],f32>, !torch.vtensor<[1],si32>, !torch.vtensor<[],f32>, !torch.vtensor<[],f32>, !torch.vtensor<[1],f32>, !torch.vtensor<[1],si32>, !torch.vtensor<[],f32>, !torch.vtensor<[],f32>, !torch.vtensor<[1,10],f32>) {
    %float1.000000e-02 = torch.constant.float 1.000000e-02
    %int0 = torch.constant.int 0
    %int127 = torch.constant.int 127
    %int-1 = torch.constant.int -1
    %false = torch.constant.bool false
    %false_0 = torch.constant.bool false
    %0:6 = torch.operator "torch.aten._fused_moving_avg_obs_fq_helper_functional"(%arg42, %arg29, %arg28, %arg33, %arg34, %arg30, %arg31, %float1.000000e-02, %int0, %int127, %int-1, %false, %false_0) : (!torch.vtensor<[1,784],f32>, !torch.vtensor<[1],si64>, !torch.vtensor<[1],si64>, !torch.vtensor<[],f32>, !torch.vtensor<[],f32>, !torch.vtensor<[1],f32>, !torch.vtensor<[1],si32>, !torch.float, !torch.int, !torch.int, !torch.int, !torch.bool, !torch.bool) -> (!torch.vtensor<[1,784],f32>, !torch.vtensor<[1,784],i1>, !torch.vtensor<[],f32>, !torch.vtensor<[],f32>, !torch.vtensor<[1],f32>, !torch.vtensor<[1],si32>) 
    %1 = torch.vtensor.literal(dense_resource<torch_tensor_128_784_torch.float32> : tensor<128x784xf32>) : !torch.vtensor<[128,784],f32>
    %float1.000000e-02_1 = torch.constant.float 1.000000e-02
    %int-128 = torch.constant.int -128
    %int127_2 = torch.constant.int 127
    %int0_3 = torch.constant.int 0
    %true = torch.constant.bool true
    %true_4 = torch.constant.bool true
    %2:6 = torch.operator "torch.aten._fused_moving_avg_obs_fq_helper_functional"(%1, %arg1, %arg0, %arg5, %arg6, %arg2, %arg3, %float1.000000e-02_1, %int-128, %int127_2, %int0_3, %true, %true_4) : (!torch.vtensor<[128,784],f32>, !torch.vtensor<[1],si64>, !torch.vtensor<[1],si64>, !torch.vtensor<[128],f32>, !torch.vtensor<[128],f32>, !torch.vtensor<[128],f32>, !torch.vtensor<[128],si32>, !torch.float, !torch.int, !torch.int, !torch.int, !torch.bool, !torch.bool) -> (!torch.vtensor<[128,784],f32>, !torch.vtensor<[128,784],i1>, !torch.vtensor<[128],f32>, !torch.vtensor<[128],f32>, !torch.vtensor<[128],f32>, !torch.vtensor<[128],si32>) 
    %3 = torch.vtensor.literal(dense_resource<torch_tensor_128_torch.float32> : tensor<128xf32>) : !torch.vtensor<[128],f32>
    %4 = torch.aten.linear %0#0, %2#0, %3 : !torch.vtensor<[1,784],f32>, !torch.vtensor<[128,784],f32>, !torch.vtensor<[128],f32> -> !torch.vtensor<[1,128],f32>
    %float1.000000e-02_5 = torch.constant.float 1.000000e-02
    %int0_6 = torch.constant.int 0
    %int127_7 = torch.constant.int 127
    %int-1_8 = torch.constant.int -1
    %false_9 = torch.constant.bool false
    %false_10 = torch.constant.bool false
    %5:6 = torch.operator "torch.aten._fused_moving_avg_obs_fq_helper_functional"(%4, %arg8, %arg7, %arg12, %arg13, %arg9, %arg10, %float1.000000e-02_5, %int0_6, %int127_7, %int-1_8, %false_9, %false_10) : (!torch.vtensor<[1,128],f32>, !torch.vtensor<[1],si64>, !torch.vtensor<[1],si64>, !torch.vtensor<[],f32>, !torch.vtensor<[],f32>, !torch.vtensor<[1],f32>, !torch.vtensor<[1],si32>, !torch.float, !torch.int, !torch.int, !torch.int, !torch.bool, !torch.bool) -> (!torch.vtensor<[1,128],f32>, !torch.vtensor<[1,128],i1>, !torch.vtensor<[],f32>, !torch.vtensor<[],f32>, !torch.vtensor<[1],f32>, !torch.vtensor<[1],si32>) 
    %6 = torch.aten.relu %5#0 : !torch.vtensor<[1,128],f32> -> !torch.vtensor<[1,128],f32>
    %float1.000000e-02_11 = torch.constant.float 1.000000e-02
    %int0_12 = torch.constant.int 0
    %int127_13 = torch.constant.int 127
    %int-1_14 = torch.constant.int -1
    %false_15 = torch.constant.bool false
    %false_16 = torch.constant.bool false
    %7:6 = torch.operator "torch.aten._fused_moving_avg_obs_fq_helper_functional"(%6, %arg36, %arg35, %arg40, %arg41, %arg37, %arg38, %float1.000000e-02_11, %int0_12, %int127_13, %int-1_14, %false_15, %false_16) : (!torch.vtensor<[1,128],f32>, !torch.vtensor<[1],si64>, !torch.vtensor<[1],si64>, !torch.vtensor<[],f32>, !torch.vtensor<[],f32>, !torch.vtensor<[1],f32>, !torch.vtensor<[1],si32>, !torch.float, !torch.int, !torch.int, !torch.int, !torch.bool, !torch.bool) -> (!torch.vtensor<[1,128],f32>, !torch.vtensor<[1,128],i1>, !torch.vtensor<[],f32>, !torch.vtensor<[],f32>, !torch.vtensor<[1],f32>, !torch.vtensor<[1],si32>) 
    %8 = torch.vtensor.literal(dense_resource<torch_tensor_10_128_torch.float32> : tensor<10x128xf32>) : !torch.vtensor<[10,128],f32>
    %float1.000000e-02_17 = torch.constant.float 1.000000e-02
    %int-128_18 = torch.constant.int -128
    %int127_19 = torch.constant.int 127
    %int0_20 = torch.constant.int 0
    %true_21 = torch.constant.bool true
    %true_22 = torch.constant.bool true
    %9:6 = torch.operator "torch.aten._fused_moving_avg_obs_fq_helper_functional"(%8, %arg15, %arg14, %arg19, %arg20, %arg16, %arg17, %float1.000000e-02_17, %int-128_18, %int127_19, %int0_20, %true_21, %true_22) : (!torch.vtensor<[10,128],f32>, !torch.vtensor<[1],si64>, !torch.vtensor<[1],si64>, !torch.vtensor<[10],f32>, !torch.vtensor<[10],f32>, !torch.vtensor<[10],f32>, !torch.vtensor<[10],si32>, !torch.float, !torch.int, !torch.int, !torch.int, !torch.bool, !torch.bool) -> (!torch.vtensor<[10,128],f32>, !torch.vtensor<[10,128],i1>, !torch.vtensor<[10],f32>, !torch.vtensor<[10],f32>, !torch.vtensor<[10],f32>, !torch.vtensor<[10],si32>) 
    %10 = torch.vtensor.literal(dense_resource<torch_tensor_10_torch.float32> : tensor<10xf32>) : !torch.vtensor<[10],f32>
    %11 = torch.aten.linear %7#0, %9#0, %10 : !torch.vtensor<[1,128],f32>, !torch.vtensor<[10,128],f32>, !torch.vtensor<[10],f32> -> !torch.vtensor<[1,10],f32>
    %float1.000000e-02_23 = torch.constant.float 1.000000e-02
    %int0_24 = torch.constant.int 0
    %int127_25 = torch.constant.int 127
    %int-1_26 = torch.constant.int -1
    %false_27 = torch.constant.bool false
    %false_28 = torch.constant.bool false
    %12:6 = torch.operator "torch.aten._fused_moving_avg_obs_fq_helper_functional"(%11, %arg22, %arg21, %arg26, %arg27, %arg23, %arg24, %float1.000000e-02_23, %int0_24, %int127_25, %int-1_26, %false_27, %false_28) : (!torch.vtensor<[1,10],f32>, !torch.vtensor<[1],si64>, !torch.vtensor<[1],si64>, !torch.vtensor<[],f32>, !torch.vtensor<[],f32>, !torch.vtensor<[1],f32>, !torch.vtensor<[1],si32>, !torch.float, !torch.int, !torch.int, !torch.int, !torch.bool, !torch.bool) -> (!torch.vtensor<[1,10],f32>, !torch.vtensor<[1,10],i1>, !torch.vtensor<[],f32>, !torch.vtensor<[],f32>, !torch.vtensor<[1],f32>, !torch.vtensor<[1],si32>) 
    return %2#4, %2#5, %2#2, %2#3, %5#4, %5#5, %5#2, %5#3, %9#4, %9#5, %9#2, %9#3, %12#4, %12#5, %12#2, %12#3, %0#4, %0#5, %0#2, %0#3, %7#4, %7#5, %7#2, %7#3, %12#0 : !torch.vtensor<[128],f32>, !torch.vtensor<[128],si32>, !torch.vtensor<[128],f32>, !torch.vtensor<[128],f32>, !torch.vtensor<[1],f32>, !torch.vtensor<[1],si32>, !torch.vtensor<[],f32>, !torch.vtensor<[],f32>, !torch.vtensor<[10],f32>, !torch.vtensor<[10],si32>, !torch.vtensor<[10],f32>, !torch.vtensor<[10],f32>, !torch.vtensor<[1],f32>, !torch.vtensor<[1],si32>, !torch.vtensor<[],f32>, !torch.vtensor<[],f32>, !torch.vtensor<[1],f32>, !torch.vtensor<[1],si32>, !torch.vtensor<[],f32>, !torch.vtensor<[],f32>, !torch.vtensor<[1],f32>, !torch.vtensor<[1],si32>, !torch.vtensor<[],f32>, !torch.vtensor<[],f32>, !torch.vtensor<[1,10],f32>
  }
}

{-#
  dialect_resources: {
    builtin: {
      torch_tensor_128_784_torch.float32: "…",
      torch_tensor_128_torch.float32: "…",
      torch_tensor_10_128_torch.float32: "…",
      torch_tensor_10_torch.float32: "…"
    }
  }
#-}
